…
d 0.08 GB:  98%|█████████▊| 79/81 [00:18<00:00,  6.26it/s]Downloaded 0.08 GB:  98%|█████████▊| 79/81 [00:18<00:00,  6.26it/s]Downloaded 0.08 GB: 100%|██████████| 81/81 [00:18<00:00,  4.29it/s]
Extracting ../dataogb/arxiv.zip
Loading necessary files...
This might take a while.
Processing graphs...
  0%|          | 0/1 [00:00<?, ?it/s]100%|██████████| 1/1 [00:00<00:00, 28149.69it/s]
Saving...
dataset ogbn-arxiv | num nodes 169343 | num edge 1166243 | num node feats 128 | num classes 40
MODEL: SGFormer(
  (trans_conv): TransConv(
    (convs): ModuleList(
      (0): TransConvLayer(
        (Wk): Linear(in_features=256, out_features=256, bias=True)
        (Wq): Linear(in_features=256, out_features=256, bias=True)
        (Wv): Linear(in_features=256, out_features=256, bias=True)
      )
    )
    (fcs): ModuleList(
      (0): Linear(in_features=128, out_features=256, bias=True)
    )
    (bns): ModuleList(
      (0-1): 2 x LayerNorm((256,), eps=1e-05, elementwise_affine=True)
    )
  )
  (graph_conv): GraphConv(
    (convs): ModuleList(
      (0-2): 3 x GraphConvLayer(
        (W): Linear(in_features=256, out_features=256, bias=True)
      )
    )
    (fcs): ModuleList(
      (0): Linear(in_features=128, out_features=256, bias=True)
    )
    (bns): ModuleList(
      (0-3): 4 x BatchNorm1d(256, eps=1e-05, momentum=0.1, affine=True, track_running_stats=True)
    )
  )
  (fc): Linear(in_features=256, out_features=40, bias=True)
)
Epoch: 00, Loss: 3.9840, Train: 7.55%, Valid: 4.38%, Test: 3.80%
Epoch: 09, Loss: 2.3168, Train: 13.79%, Valid: 23.94%, Test: 22.19%
Epoch: 18, Loss: 1.9384, Train: 29.78%, Valid: 36.02%, Test: 35.73%
Epoch: 27, Loss: 1.6813, Train: 39.11%, Valid: 44.53%, Test: 45.39%
Epoch: 36, Loss: 1.5047, Train: 54.38%, Valid: 56.09%, Test: 55.11%
Epoch: 45, Loss: 1.3964, Train: 61.14%, Valid: 61.52%, Test: 60.63%
…
ight_decay=0.0, lr=0.001, batch_size=10000, patience=200, display_step=1, eval_step=9, cached=False, print_prop=False, save_result=False, save_model=False, use_pretrained=False, save_att=False, model_dir='../../model/', hops=2, gat_heads=4, out_heads=1, num_partitions=256, partition_method='metis')
ogbn-arxiv
dataset ogbn-arxiv | num nodes 169343 | num edge 1166243 | num node feats 128 | num classes 40
Computing 256 partitions using metis...
Partitions: 256, avg size: 661, max size: 681, boundary: 109448/169343 (64.6%)
MODEL: PCGTFormer(
  (pcgt_conv): PCGTConv(
    (fcs): ModuleList(
      (0): Linear(in_features=128, out_features=256, bias=True)
    )
    (bns): ModuleList(
      (0-1): 2 x LayerNorm((256,), eps=1e-05, elementwise_affine=True)
    )
    (partition_pe): Embedding(256, 256)
    (convs): ModuleList(
      (0): PCGTConvLayer(
        (Wq): Linear(in_features=256, out_features=256, bias=True)
        (Wk): Linear(in_features=256, out_features=256, bias=True)
        (Wv): Linear(in_features=256, out_features=256, bias=True)
      )
    )
  )
  (graph_conv): GraphConv(
    (convs): ModuleList(
      (0-2): 3 x GraphConvLayer(
        (W): Linear(in_features=256, out_features=256, bias=True)
      )
    )
    (fcs): ModuleList(
      (0): Linear(in_features=128, out_features=256, bias=True)
    )
    (bns): ModuleList(
      (0-3): 4 x BatchNorm1d(256, eps=1e-05, momentum=0.1, affine=True, track_running_stats=True)
    )
  )
  (fc): Linear(in_features=256, out_features=40, bias=True)
)
Epoch: 00, Loss: 3.8606, Train: 17.92%, Valid: 7.66%, Test: 5.89%
Epoch: 09, Loss: 2.3021, Train: 17.91%, Valid: 27.12%, Test: 26.30%
Epoch: 18, Loss: 1.8903, Train: 29.08%, Valid: 35.26%, Test: 35.15%
Epoch: 27, Loss: 1.5956, Train: 41.35%, Valid: 47.45%, Test: 48.90%
Epoch: 36, Loss: 1.4134, Train: 56.34%, Valid: 58.77%, Test: 58.97%
Epoch: 45, Loss: 1.2929, Train: 63.48%, Valid: 64.47%, Test: 64.13%
…
